AutogluonModels/ag-20241022_165723/models/NeuralNetFastAImodel-internals.pkl (torch, 513361 bytes, 16 tensors)

weight f4 [6, 4]
-0.0034907968 0.007515855 0.0035600527 0.020876748 -0.017144134 0.06430105 0.24524029 -0.17964175
0.05226883 -0.03714637 0.087865986 -0.036447197 0.0618366 -0.10653916 0.042318657 -0.0741626
-0.19351771 0.10000226 0.053060584 -0.16174348 -0.18098122 0.2154225 0.076219924 0.25509015
00000000: dac5 64bb 9047 f63b c64f 693b b705 ab3c
00000010: db71 8cbc 45b0 833d 4520 7b3e 02f4 37be
00000020: d717 563d cb26 18bd 15f3 b33d a849 15bd
00000030: 6048 7d3d 3431 dabd 5456 2d3d 90e2 97bd
00000040: 8229 46be fccd cc3d 0e56 593d 15a0 25be
00000050: 2453 39be b797 5c3e 3119 9c3d 2d9b 823e

weight f4 [7]
0.8421596 1.1884129 0.7990904 1.0012696 1.4006453 0.8831418 1.1096437
00000000: c697 573f ea1d 983f 3091 4c3f 9a29 803f
00000010: 5848 b33f 9515 623f ce08 8e3f

bias f4 [7]
0.23563735 -0.23944351 0.16761123 0.48925018 0.021218074 0.033165697 -0.74175394
00000000: eb4a 713e ae30 75be 47a2 2b3e 007f fa3e
00000010: 87d1 ad3c c1d8 073d 96e3 3dbf

running_mean f4 [7]
0.0032612123 0.0031377238 -0.001443785 -0.0012460216 -0.008613279 0.011105808 -0.011943222
00000000: 10ba 553b 45a2 4d3b 633d bdba 8c51 a3ba
00000010: b61e 0dbc 23f5 353c 81ad 43bc

running_var f4 [7]
0.98440975 0.98454386 0.9946941 0.99538153 1.003245 0.99718606 1.0055624
00000000: 4702 7c3f 110b 7c3f 46a4 7e3f 53d1 7e3f
00000010: 556a 803f 9647 7f3f 45b6 803f

weight f4 [200, 11]
-0.14830746 -0.004238086 0.12322344 -0.31740317 -0.12829429 -0.13110217 -0.23080844 -0.34876892
0.016271519 -0.229211 -0.05782836 0.24510092 0.17574927 0.14420788 -0.23107749 -0.0136132175
0.44333148 0.28085658 0.030843638 -0.3655221 0.072593935 0.15635152 -0.11573297 -0.074604906
-0.15083441 0.060303554 0.06816108 0.018558599 -0.5495372 -0.5041706 0.0773166 0.019870002
0.00931168 0.2091077 0.21784602 -0.15663745 -0.06939559 -0.019284852 0.15808697 0.19292659
0.26017854 -0.12784824 -0.13480678 0.17759609 -0.16296017 -0.28510237 0.018810257 -0.09240726
-0.08895577 -0.12831664 -0.077334255 0.026809528 -0.4774464 0.08510515 0.5443655 0.10054665
-0.30242965 0.013514279 -0.09988345 -0.14001073 0.69888514 -0.08205219 -0.031378176 0.14668256
0.03598477 0.066524796 -0.050193414 -0.03052788 -0.2603349 -0.362891 -0.2407264 -0.16855
-0.020523489 0.18643881 0.27690926 -0.39386904 0.40092355 -0.20935594 -0.12257063 -0.24594072
-0.010890784 0.10520301 -0.5337784 -0.23155749 -0.054432698 0.0036736503 -0.07627331 0.014420376
0.16280842 -0.5054501 0.2471257 -0.457717 0.5770061 0.20387083 -0.05354414 0.3501946
-0.15515836 -0.08061911 0.02718927 -0.2783388 -0.042957775 -0.19511795 0.28403038 -0.22966959
0.078951 0.1929778 0.044369098 -0.20970546 0.1933388 0.3204377 0.4393518 0.019733528
-0.025396815 0.20190261 -0.11737033 -0.2980107 0.028235773 0.28351974 -0.1877623 0.14619274
0.3670523 0.077870995 -0.15621117 -0.13031814 0.0008524689 0.29222345 0.027206853 0.13508879
0.08749395 0.54293954 0.32361123 0.17954317 0.29206237 -0.31713057 0.109189436 -0.20889413
-0.23675188 0.18142095 0.30952218 -0.16385043 -0.22343154 0.28839555 -0.023256307 0.105595626
-0.4975647 0.19557336 -0.48461947 -0.20652439 0.061435904 -0.23139673 -0.19610733 0.3054759
-0.25268266 0.48344135 0.077709205 -0.15383698 0.2143951 -0.029422317 -0.10873933 0.3248287
0.025754457 0.19103743 0.08395748 0.19798906 0.50040317 -0.1717797 0.074368425 -0.0290988
-0.012547458 0.039433505 -0.5800217 0.025640745 0.23548919 0.09143323 0.04446742 0.39064357
-0.30913922 0.1473162 -0.12892318 -0.27169463 -0.26644188 0.19686961 -0.14898172 -0.07534964
0.38967887 -0.14920804 0.34445757 0.40190375 -0.024668805 0.17866471 -0.14043163 0.13641477
0.049491018 -0.33465073 -0.61586773 -0.08577329 -0.0022111568 0.040708013 0.14052759 -0.0129366275
0.058348544 -0.094138555 -0.28272575 0.3652879 0.12686141 0.3234248 -0.011040157 0.39337173
-0.11172684 0.19121642 -0.4465525 0.30365402 0.040178046 0.0900136 0.08827303 -0.5531681
-0.21748564 0.01449488 0.026339807 0.3406591 -0.24339058 0.0664903 -0.13892978 0.18837647
-0.3146585 0.2606366 0.18364833 0.25198874 0.44105446 0.09524048 -0.0741641 -0.22036217
0.2886579 0.035137326 0.010403977 0.02863621 0.19879939 -0.12747835 -0.023080595 0.01570406
-0.22558033 0.61922854 -0.19925159 0.014558793 0.23389402 0.36303964 -0.16754912 0.053254552
0.28407678 0.037969865 -0.20210767 -0.083264686 0.6586691 -0.0359197 0.10144825 -0.23493679
00000000: e9dd 17be a4df 8abb 925c fc3d ab82 a2be
00000010: 945f 03be a63f 06be 0c59 6cbe d791 b2be
00000020: d94b 853c 4ab6 6abe 6edd 6cbd bcfb 7a3e
00000030: 9ef7 333e 3bab 133e 949f 6cbe f909 5fbc
00000040: 58fc e23e 6fcc 8f3e ccab fc3c b625 bbbe
00000050: 21ac 943d 9d1a 203e 6805 edbd 75ca 98bd
00000060: 5674 1abe dc00 773d 0998 8b3d 3408 983c
00000070: 78ae 0cbf 5311 01bf 2a58 9e3d 6ac6 a23c
00000080: 0490 183c 5420 563e 0713 5f3e 9165 20be
00000090: 461f 8ebd 44fb 9dbc 8de1 213e 8c8e 453e
000000a0: 1f36 853e a6ea 02be ca0a 0abe c0db 353e
000000b0: 08df 26be f0f8 91be f817 9a3c 0440 bdbd
000000c0: 712e b6bd 7065 03be 6c61 9ebd a89f db3c
000000d0: db73 f4be 9c4b ae3d 8a5b 0b3f 67eb cd3d
000000e0: 0fd8 9abe ff6a 5d3c b28f ccbd f95e 0fbe
000000f0: 23ea 323f fb0a a8bd 6786 00bd f433 163e
00000100: c464 133d 273e 883d 9c97 4dbd 9b15 fabc
00000110: 9e4a 85be d9cc b9be fb80 76be 5f98 2cbe
00000120: e020 a8bc d1e9 3e3e 0dc7 8d3e 34a9 c9be
00000130: da45 cd3e 6761 56be 4f06 fbbd e2d7 7bbe
00000140: 426f 32bc ad74 d73d b4a5 08bf 681d 6dbe
00000150: d2f4 5ebd a0c1 703b 2e35 9cbd 7143 6c3c
00000160: 40b7 263e 2e65 01bf 850e 7d3e e259 eabe
00000170: acb6 133f 84c3 503e 1a51 5bbd b54c b33e
00000180: d5e1 1ebe a21b a5bd 08bc de3c 6c82 8ebe
00000190: 7ef4 2fbd 00cd 47be 6e6c 913e 812e 6bbe
000001a0: 10b1 a13d f99b 453e 5fbc 353d 07bd 56be
000001b0: 9bfa 453e 6910 a43e b8f2 e03e 35a8 a13c
000001c0: fb0c d0bc 8fbf 4e3e db5f f0bd dc94 98be
000001d0: b54e e73c 8029 913e c344 40be 8db3 153e
000001e0: 47ee bb3e d47a 9f3d d2f5 1fbe 1e72 05be
000001f0: 3878 5f3a 509e 953e e8e0 de3c b754 0a3e
00000200: 0730 b33d 16fe 0a3f 5fb0 a53e 2ada 373e
00000210: 3389 953e f05e a2be b69e df3d 58e8 55be
00000220: 166f 72be 6ac6 393e b179 9e3e 68c8 27be
00000230: 3dcb 64be 95a8 933e 0384 bebc 8542 d83d
00000240: cdc0 febe 6244 483e 0b20 f8be 217b 53be
00000250: 37a4 7b3d 44f3 6cbe 5cd0 48be 5667 9c3e
00000260: 9f5f 81be a085 f73e 0126 9f3d 7187 1dbe
00000270: 648a 5b3e 1207 f1bc bab2 debd f34f a63e
00000280: 03fb d23c 519f 433e e6f1 ab3d a5bd 4a3e
00000290: 6c1a 003f 05e7 2fbe 794e 983d 9b60 eebc
000002a0: da93 4dbc 0785 213d 4d7c 14bf 8a0c d23c
000002b0: 1424 713e 5841 bb3d 7823 363d 6f02 c83e
000002c0: 7f47 9ebe 0fda 163e 7004 04be 8f1b 8bbe
000002d0: 126b 88be 3098 493e aa8e 18be e950 9abd
000002e0: fd83 c73e fec9 18be be5c b03e 54c6 cd3e
000002f0: 3c16 cabc e2f3 363e 4fcd 0fbe 50b0 0b3e
00000300: 18b7 4a3d 5757 abbe 82a9 1dbf e8a9 afbd
00000310: 0ee9 10bb 72bd 263d 77e6 0f3e 26f4 53bc
00000320: e2fe 6e3d b7cb c0bd 6ec1 90be 0407 bb3e
00000330: f5e7 013e ef97 a53e c6e1 34bc 0568 c93e
00000340: 0bd1 e4bd 3dce 433e 87a2 e4be 8a78 9b3e
00000350: bc91 243d 0d59 b83d 7ec8 b43d 6d9c 0dbf
00000360: 8eb4 5ebe ef7b 6d3c 94c6 d73c df6a ae3e
00000370: 613b 79be 112c 883d 9c43 0ebe c3e5 403e
00000380: eb1a a1be 2972 853e 4f0e 3c3e ab04 813e
00000390: e4d1 e13e 710d c33d 59e3 97bd 9fa6 61be
000003a0: f8ca 933e 28ec 0f3d 7175 2a3c 7c96 ea3c
000003b0: 1192 4b3e af89 02be 8413 bdbc cda5 803c
000003c0: 88fe 66be c385 1e3f 9c08 4cbe 0188 6e3c
000003d0: ea81 6f3e 55e0 b93e ff91 2bbe 7221 5a3d
000003e0: 8372 913e 4a86 1b3d 50f5 4ebe ad86 aabd
000003f0: 8a9e 283f 8920 13bd 1ac4 cf3d 4593 70be

weight f4 [200]
0.71159375 0.8350746 1.1468407 0.85024625 1.1941558 1.0580065 1.0949944 1.1464409
0.946871 1.0965426 1.3963753 1.2186548 0.6080504 1.1320157 1.03918 0.97425526
1.2056459 1.2826276 1.2823862 0.9137421 1.0436912 0.88975656 1.2668817 0.9491438
0.99259335 1.4222386 0.97527564 1.1039667 0.8089973 0.93980396 1.177077 1.0049736
1.1319814 0.7770425 1.1381267 1.0171117 0.91659087 1.1198967 0.94722474 1.1497188
1.3007516 1.5407113 1.4766829 1.1123487 0.9888199 1.4123094 1.051194 0.81256765
0.7860816 1.3885167 1.4196317 1.1217777 1.0203682 0.9920636 0.6954747 1.0259314
1.0330048 1.1126719 1.1550685 0.9659482 0.7415837 0.9182664 0.9014792 1.3531342
0.78071064 1.2649208 1.1829629 1.0291084 0.78560644 0.9149281 0.84862846 1.1657327
0.9434409 0.9959332 1.0359815 1.0917982 1.0519006 1.261908 1.3998277 0.8948914
0.8971858 1.1615915 1.0050373 1.0024557 1.2592398 0.91349447 0.59491634 0.82352173
0.801663 1.0083075 1.0262655 1.0205474 0.8923705 1.4985462 0.911168 0.9762743
0.9839308 1.080931 1.0963875 1.1319426 1.3284415 0.95520777 1.2389584 0.81099963
0.98405683 0.8354103 0.8609553 0.81185883 0.966008 0.953471 1.4709197 1.5169793
0.8220398 1.3740644 1.0853951 1.1104219 1.1522547 0.79055506 0.7809228 0.8143304
0.953575 0.7861391 1.0007855 0.94098747 1.1330978 0.9371333 0.9080106 0.7969342
1.414926 0.8741408 1.1970948 1.1649317 1.1456596 0.6570324 1.373438 1.0903267
0.83433723 1.0073584 0.987907 0.8103075 0.989391 0.96310866 1.2839216 1.0243651
0.97536147 1.0999192 0.55112827 0.95032936 1.0194818 1.1227014 1.1900327 1.2281743
1.0111624 1.0253118 1.0044131 1.1120819 0.6388151 0.8775683 1.3704973 0.9704843
1.2210389 0.9126843 1.0477242 0.9743999 1.2450002 1.064573 0.91170573 1.1432211
0.8157277 1.1912725 0.95344925 1.4097437 1.0254265 0.9721485 1.0899034 0.87434375
0.7041131 1.2325685 0.92679936 1.630468 0.8869455 1.2854443 1.0150921 0.738457
0.8611404 0.97774947 0.8365263 1.0001497 0.95344937 0.7652877 1.1324549 1.0113467
1.185512 1.1228138 1.0967474 1.3286674 1.3826213 1.0204675 1.224435 0.8352991
00000000: 022b 363f 73c7 553f adcb 923f bda9 593f
00000010: 19da 983f c26c 873f c728 8c3f 93be 923f
00000020: 2366 723f 825b 8c3f 6dbc b23f e1fc 9b3f
00000030: 31a9 1b3f e4e5 903f da03 853f cb68 793f
00000040: 9b52 9a3f 242d a43f 3b25 a43f 01eb 693f
00000050: ac97 853f 16c7 633f 2e29 a23f 17fb 723f
00000060: 991a 7e3f ea0b b63f aaab 793f c84e 8d3f
00000070: 721a 4f3f fe96 703f 76aa 963f faa2 803f
00000080: c4e4 903f 42ec 463f 23ae 913f b730 823f
00000090: b3a5 6a3f c658 8f3f 527d 723f fc29 933f
000000a0: 077f a63f 0736 c53f f203 bd3f 7161 8e3f
000000b0: 4d23 7d3f 8ec6 b43f 868d 863f 6f04 503f
000000c0: a53c 493f eaba b13f 7eb6 b53f 6996 8f3f
000000d0: 6d9b 823f e1f7 7d3f a10a 323f b851 833f
000000e0: 8039 843f 086c 8e3f 49d9 933f 6248 773f
000000f0: 6ed8 3d3f 8213 6b3f 57c7 663f 8033 ad3f
00000100: a7dc 473f ede8 a13f 546b 973f d3b9 833f
00000110: 811d 493f ba38 6a3f b73f 593f bb36 953f
00000120: 5885 713f 7af5 7e3f 0b9b 843f 0bc0 8b3f
00000130: aea4 863f 3486 a13f 8e2d b33f 9a17 653f
00000140: f8ad 653f 08af 943f 10a5 803f 7850 803f
00000150: c52e a13f c6da 693f 704c 183f 52d2 523f
00000160: c939 4d3f 3810 813f ab5c 833f 4ca1 823f
00000170: 6572 643f 5dd0 bf3f 4e42 693f 1ded 793f
00000180: e4e2 7b3f f25b 8a3f 6d56 8c3f 7fe3 903f
00000190: 5f0a aa3f 7f88 743f 3096 9e3f ac9d 4f3f
000001a0: 26eb 7b3f 73dd 553f 9167 5c3f fbd5 4f3f
000001b0: 4d4c 773f ad16 743f 1947 bc3f 612c c23f
000001c0: 3371 523f 58e1 af3f 3aee 8a3f 4e22 8e3f
000001d0: 157d 933f d161 4a3f 8eea 473f f577 503f
000001e0: 7e1d 743f 6940 493f bd19 803f 8ee4 703f
000001f0: 5909 913f f8e7 6f3f 6273 683f e103 4c3f
00000200: 4c1c b53f b1c7 5f3f 673a 993f 7b1c 953f
00000210: f9a4 923f 4633 283f d1cc af3f d38f 8b3f
00000220: 2097 553f 1ff1 803f 79e7 7c3f 5070 4f3f
00000230: bb48 7d3f 4a8e 763f 8b57 a43f 651e 833f
00000240: 4ab1 793f 27ca 8c3f be16 0d3f c948 733f
00000250: 617e 823f aeb4 8f3f fe52 983f d134 9d3f
00000260: c56d 813f 6b3d 833f 9c90 803f b358 8e3f
00000270: 6389 233f 51a8 603f 756c af3f a971 783f
00000280: 014b 9c3f aea5 693f d41b 863f 4672 793f
00000290: 2b5c 9f3f ee43 883f 8c65 693f 1255 923f
000002a0: 88d3 503f 9e7b 983f 4015 743f 7b72 b43f
000002b0: 2d41 833f b9de 783f f481 8b3f fed4 5f3f
000002c0: c240 343f cec4 9d3f b942 6d3f 2db3 d03f
000002d0: dc0e 633f 7089 a43f 8aee 813f 850b 3d3f
000002e0: b273 5c3f ca4d 7a3f 9626 563f e804 803f
000002f0: 4215 743f e5e9 433f 48f4 903f cf73 813f
00000300: dbbe 973f 5db8 8f3f 3862 8c3f c611 aa3f
00000310: bcf9 b03f ae9e 823f 49ba 9c3f 29d6 553f

bias f4 [200]
0.083994456 0.16106223 -0.0005361434 -0.077632554 0.3045796 0.240136 -0.164404 -0.3020896
-0.029225754 0.17160505 -0.03713775 -0.098420784 0.4169611 -0.15956885 -0.10377891 -0.10353407
0.02304269 0.43610948 -0.051632997 0.4639542 0.37514654 0.06638105 0.03969115 0.076500125
-0.12068841 -0.06690311 -0.32278687 0.14252222 -0.03703243 0.2625367 -0.18530633 -0.36611718
-0.16106743 0.31513834 -0.34096098 0.4541443 -0.16814916 0.0055253217 0.51079124 0.2514312
-0.42856798 -0.041536175 -0.16818286 0.09612975 0.3638506 0.11733057 0.18807305 0.524561
-0.056953374 -0.2140499 0.3011594 0.20683527 0.074087664 0.14138521 -0.0055405768 0.68670934
-0.10356841 -0.02366509 -0.103436194 0.5493128 0.40703738 0.2732355 -0.10862982 -0.14268869
0.48119715 0.28441995 0.03995792 0.3876124 0.3250069 0.3048249 0.21379086 0.05890687
0.081356354 -0.56730384 -0.023773216 -0.12398979 0.015449993 0.15689051 -0.24250957 0.047905523
0.32550514 0.04513166 0.03642688 0.18001448 -0.05407697 0.54603744 0.36446834 0.31627446
-0.06264512 0.28902316 -0.03369001 0.27973804 -0.13051102 -0.10844107 -0.05039113 0.09579829
0.21295737 0.25367025 0.16367616 -0.1346345 0.053394362 -0.17895982 0.13352843 -0.04861876
0.035079908 0.57314396 0.27687946 0.06571866 -0.31152654 0.45423847 -0.18131348 -0.17562905
0.016465297 -0.052989684 0.30351025 -0.0029053618 0.37442392 0.10338886 0.2488924 0.4243824
-0.23996343 -0.21463177 0.081502184 0.27127358 -0.079884894 0.053680886 0.05758376 0.3693575
-0.33917484 -0.24033219 -0.033801757 0.30426717 0.2071241 0.12654462 -0.037300892 0.25735754
0.3084888 -0.14208171 0.36897326 0.0194638 0.58146983 0.04139465 0.081535995 -0.2149813
0.33614844 0.4176717 0.23830383 0.04661091 -0.3472684 0.46299976 0.40326753 -0.30292052
-0.23682527 -0.05222733 0.04536243 0.26903597 0.4266448 0.24130316 0.33111867 0.08173471
-0.15286432 -0.0158292 0.14351138 0.27426478 0.20468298 0.59645164 -0.045906443 -0.14398132
0.3088731 0.14914812 0.0003610531 -0.15990865 0.10343086 -0.005251564 0.15202568 0.33795276
0.0038723117 0.28459698 0.33799744 -0.44570267 -0.20903933 0.036113113 -0.035043523 0.3763102
0.4521228 -0.1095861 -0.045324564 0.29730338 0.14940755 0.0018203703 0.13099119 0.1864449
-0.38153344 -0.007021319 0.2195173 -0.26070955 0.004090504 0.4865395 0.20107993 0.18530883
00000000: 4905 ac3d 7fed 243e f98b 0cba d1fd 9ebd
00000010: dbf1 9b3e 36e6 753e 8659 28be 7dab 9abe
00000020: d96a efbc 3cb9 2f3e c11d 18bd d690 c9bd
00000030: ed7b d53e 0466 23be 0a8a d4bd ac09 d4bd
00000040: 06c4 bc3c be49 df3e 1f7d 53bd 688b ed3e
00000050: 3513 c03e caf2 873d 3093 223d 19ac 9c3d
00000060: 7c2b f7bd 7f04 89bd 5244 a5be 58f1 113e
00000070: 51af 17bd 366b 863e f1c0 3dbe b673 bbbe
00000080: dcee 24be d059 a13e 7092 aebe 9a85 e83e
00000090: 4b2f 2cbe c20d b53b 37c3 023f 97bb 803e
000000a0: 436d dbbe d621 2abd 2138 2cbe addf c43d
000000b0: a04a ba3e 034b f03d 3996 403e a149 063f
000000c0: f147 69bd e62f 5bbe 9131 9a3e a0cc 533e
000000d0: 46bb 973d 49c7 103e ba8d b5bb 2fcc 2f3f
000000e0: ad1b d4bd 4add c1bc 5bd6 d3bd c39f 0c3f
000000f0: 3467 d03e 86e5 8b3e 5079 debd fc1c 12be
00000100: 795f f63e 7e9f 913e eaaa 233d 2275 c63e
00000110: 4e67 a63e 0212 9c3e feeb 5a3e 5548 713d
00000120: 299e a63d d33a 11bf 0cc0 c2bc 5cee fdbd
00000130: f821 7d3c e8a7 203e 6e54 78be 9538 443d
00000140: 9ca8 a63e fadb 383d 5a34 153d b755 383e
00000150: d07f 5dbd 1cc9 0b3f 989b ba3e baee a13e
00000160: 164c 80bd d8fa 933e 89fe 09bd d339 8f3e
00000170: aea4 05be 5a16 debd ee66 4ebd e531 c43d
00000180: 7f11 5a3e 11e1 813e b99a 273e a0dd 09be
00000190: 0cb4 5a3d 3e41 37be adbb 083e 7724 47bd
000001a0: f3af 0f3d 90b9 123f 25c3 8d3e 8197 863d
000001b0: 6880 9fbe f291 e83e 3eaa 39be 1ad8 33be
000001c0: 3be2 863c b60b 59bd b265 9b3e e267 3ebb
000001d0: 7eb4 bf3e 8abd d33d a6dd 7e3e a648 d93e
000001e0: f9b8 75be 6ec8 5bbe 9eea a63d 5fe4 8a3e
000001f0: b19a a3bd 7de0 5b3d f3dc 6b3d 6d1c bd3e
00000200: 53a8 adbe a419 76be b673 0abd e8c8 9b3e
00000210: 5718 543e ea94 013e d2c8 18bd 5ec4 833e
00000220: 3ef2 9d3e de7d 11be 10ea bc3e 8c72 9f3c
00000230: 35db 143f 708d 293d 58fc a63d 0f24 5cbe
00000240: a61b ac3e 11d9 d53e eb05 743e 15eb 3e3d
00000250: 2acd b1be 4e0e ed3e 1579 ce3e 6618 9bbe
00000260: 5382 72be 53ec 55bd f5cd 393d 15bf 893e
00000270: 3071 da3e 2d18 773e 6388 a93e 8764 a73d
00000280: 7788 1cbe 3dac 81bc a6f4 123e 6f6c 8c3e
00000290: 6a98 513e 0eb1 183f 6508 3cbd d76f 13be
000002a0: 9d24 9e3e 49ba 183e ba4b bd39 18bf 23be
000002b0: 8fd3 d33d 5015 acbb 9fac 1b3e 2508 ad3e
000002c0: 9cc6 7d3b b2b6 913e 000e ad3e 2433 e4be
000002d0: 680e 56be 58eb 133d cc89 0fbd bbab c03e
000002e0: a47c e73e ad6e e0bd 40a6 39bd 2638 983e
000002f0: 4bfe 183e 7e99 ee3a 8e22 063e 69eb 3e3e
00000300: 5a58 c3be 1813 e6bb 25c9 603e b97b 85be
00000310: a209 863b b51b f93e e6e7 4d3e 99c1 3d3e

running_mean f4 [200]
0.14542307 0.22048268 0.22576931 0.18574244 0.18697643 0.1461487 0.15168543 0.261809
0.24696697 0.15692995 0.2196166 0.35251975 0.10349917 0.086893156 0.14566986 0.32466692
0.14424767 0.17868462 0.31844297 0.122005425 0.42618844 0.13965356 0.20388907 0.19387877
0.17691422 0.18856259 0.18593585 0.18829034 0.250343 0.2668997 0.203245 0.27045724
0.0928828 0.1267594 0.24281134 0.0999401 0.29277232 0.26442653 0.38838634 0.15798478
0.09504498 0.13663426 0.19366452 0.060134865 0.25923148 0.26067355 0.54792356 0.45763838
0.18269283 0.2059821 0.19234432 0.16585478 0.1030674 0.20365146 0.11495279 0.4525113
0.17812362 0.319018 0.20740825 0.449071 0.23240863 0.33501023 0.13197058 0.22841473
0.5092745 0.22268565 0.14972922 0.17598122 0.30734295 0.3792866 0.16367774 0.22352299
0.2557968 0.11312575 0.1978317 0.09985903 0.46220532 0.80251884 0.16741712 0.10261426
0.08055082 0.21116665 0.06506461 0.30008048 0.1561826 0.31422904 0.3388727 0.13045587
0.16207457 0.2847913 0.21542376 0.29745996 0.2821364 0.11323431 0.2622106 0.3116559
0.1954609 0.24917568 0.07195485 0.24943043 0.35495323 0.14359272 0.06327186 0.2943316
0.37003422 0.438565 0.13922822 0.15786391 0.28162894 0.20287734 0.2821862 0.26608312
0.15973726 0.1748154 0.7076025 0.15930232 0.17403822 0.15834506 0.10068644 0.16688979
0.1456253 0.3218692 0.22496508 0.49419114 0.13006489 0.37871617 0.48102582 0.4364046
0.123424225 0.2071373 0.16070837 0.18876743 0.14099327 0.12543927 0.17279568 0.23097685
0.26037937 0.5568461 0.4140274 0.20888531 0.4495367 0.45914394 0.20822845 0.13470532
0.15666658 0.2872702 0.21546428 0.108154505 0.1913996 0.40612304 0.2827532 0.18436053
0.20995133 0.20620096 0.14295438 0.29967195 0.25730604 0.38136065 0.21326433 0.116307855
0.30363292 0.35438356 0.30908108 0.3446299 0.5824332 0.19858587 0.44180846 0.13739547
0.18235181 0.48023784 0.09483549 0.18736646 0.18772967 0.2073024 0.13444974 0.1513513
0.31539387 0.49212828 0.14584441 0.1619713 0.1504397 0.085605115 0.16835776 0.25374165
0.15938433 0.12743202 0.112087816 0.37549925 0.3016968 0.14347547 0.16522308 0.1261549
0.3200142 0.53469014 0.2997929 0.14790945 0.20647304 0.25958008 0.231347 0.1500465
00000000: c9e9 143e 36c6 613e 1230 673e 4433 3e3e
00000010: c076 3f3e 01a8 153e 6d53 1b3e d40b 863e
00000020: e9e4 7c3e 3fb2 203e 2de3 603e 787d b43e
00000030: 5ff7 d33d 0af5 b13d 7b2a 153e be3a a63e
00000040: a9b5 133e 1af9 363e f50a a33e fbdd f93d
00000050: 5f35 da3e 5801 0f3e 4cc8 503e 2888 463e
00000060: 0029 353e 8d16 413e f865 3e3e 2fcf 403e
00000070: f52c 803e 14a7 883e 751f 503e 5f79 8a3e
00000080: 5639 be3d 37cd 013e 89a3 783e 65ad cc3d
00000090: 41e6 953e ea62 873e 93da c63e c3c6 213e
000000a0: f1a6 c23d dae9 0b3e fe4f 463e fa4f 763d
000000b0: fdb9 843e 0177 853e b844 0c3f 944f ea3e
000000c0: d413 3b3e f9ec 523e e9f5 443e d6d5 293e
000000d0: 0015 d33d 028a 503e 5e6c eb3d 90af e73e
000000e0: 0a66 363e 5456 a33e d462 543e a2ec e53e
000000f0: 87fc 6d3e 7686 ab3e 4c23 073e 8de5 693e
00000100: d05f 023f b507 643e 9e52 193e 6c34 343e
00000110: 0e5c 9d3e da31 c23e 239b 273e 36e3 643e
00000120: ccf7 823e 79ae e73d 6594 4a3e e482 cc3d
00000130: 2da6 ec3e e071 4d3f 656f 2b3e 6d27 d23d
00000140: d4f7 a43d 123c 583e 9840 853d 26a4 993e
00000150: 55ee 1f3e a1e2 a03e b980 ad3e 3996 053e
00000160: e0f6 253e 2ad0 913e 0c98 5c3e ac4c 983e
00000170: 2f74 903e 64e7 e73d 7840 863e 5d91 9f3e
00000180: e726 483e e927 7f3e 105d 933d b16a 7f3e
00000190: 6ebc b53e f809 133e ad94 813d a2b2 963e
000001a0: 2075 bd3e 978b e03e d891 0e3e 14a7 213e
000001b0: ab31 903e 14bf 4f3e b67a 903e 0c3c 883e
000001c0: 2a92 233e cf02 333e 7025 353f 2620 233e
000001d0: 1337 323e 3525 223e b134 ce3d 28e5 2a3e
000001e0: cc1e 153e 0acc a43e 3f5d 663e 9f06 fd3e
000001f0: bb2f 053e 16e7 c13e 0449 f63e 6c70 df3e
00000200: d7c5 fc3d cd1b 543e bc90 243e 404c 413e
00000210: 8a60 103e 2773 003e 5af1 303e 3285 6c3e
00000220: 7250 853e 778d 0e3f 66fb d33e 08e6 553e
00000230: ad29 e63e ea14 eb3e d739 553e 31f0 093e
00000240: 346d 203e 1415 933e aba2 5c3e 1c80 dd3d
00000250: 42fe 433e 5cef cf3e 07c5 903e 02c9 3c3e
00000260: 7bfd 563e 5826 533e a262 123e 9a6e 993e
00000270: 9ebd 833e b441 c33e f761 5a3e d032 ee3d
00000280: c675 9b3e c371 b53e e03f 9e3e 5573 b03e
00000290: 581a 153f 185a 4b3e b834 e23e 66b1 0c3e
000002a0: 6fba 3a3e bce1 f53e 1c39 c23d fedc 3f3e
000002b0: 353c 403e 1547 543e 31ad 093e d6fb 1a3e
000002c0: 4e7b a13e 3df8 fb3e 3d58 153e cedb 253e
000002d0: dd0c 1a3e bc51 af3d fa65 2c3e 6dea 813e
000002e0: a535 233e 8a7d 023e 4c8e e53d 7041 c03e
000002f0: 0178 9a3e 3ceb 123e 3d30 293e c02e 013e
00000300: e7d8 a33e 74e1 083f 747e 993e 9375 173e
00000310: ab6d 533e aee7 843e 3ae6 6c3e caa5 193e

running_var f4 [200]
0.16473345 0.23965307 0.46352187 0.07275587 0.13730338 0.40720472 0.08546067 0.12717335
0.1556803 0.088559225 0.11082621 0.2303794 0.097031504 0.07529795 0.12844385 0.18137245
0.122713596 0.34825248 0.29890746 0.16809487 0.32418403 0.07639765 0.12255042 0.0951694
0.114433914 0.35085264 0.2350029 0.14996846 0.20297086 0.23728575 0.37253863 0.44145042
0.08728717 0.07091112 0.5734955 0.1979914 0.18847547 0.16196463 0.17846754 0.23282573
0.04650161 0.2203353 0.11167404 0.13961124 0.2194941 0.28408882 0.30250832 0.355926
0.094579086 0.18924738 0.38110125 0.30598286 0.07919887 0.3323765 0.03916459 0.26940143
0.28871667 0.16659203 0.11752995 0.304397 0.19502015 0.20610912 0.16403292 0.507358
0.27941367 0.14966162 0.19160174 0.33367175 0.13898951 0.22245923 0.1310982 0.43541
0.25995263 0.15872996 0.15774369 0.105730765 0.24722692 0.5829496 0.11649904 0.14337112
0.20932549 0.26724976 0.1002852 0.2969531 0.06683401 0.38438985 0.14354976 0.06448343
0.2019445 0.14848273 0.4419459 0.18069321 0.13803563 0.13695526 0.19404702 0.18192945
0.31731388 0.20187588 0.21929727 0.16662952 0.22514859 0.10245279 0.16533767 0.19998339
0.24104536 0.34996495 0.14913148 0.19642946 0.40779814 0.24165307 0.16776635 0.5106634
0.10992398 0.3280753 0.24501579 0.09583163 0.28771093 0.30422205 0.12670061 0.31112877
0.074622974 0.36662537 0.5217196 0.34737626 0.066569276 0.28870785 0.3028847 0.3361162
0.062280998 0.104710944 0.0892801 0.2971461 0.06403843 0.08290119 0.117307 0.13512224
0.21235085 0.24268627 0.23684804 0.10897742 0.20968734 0.41420725 0.3320061 0.16290529
0.11094837 0.25602505 0.084979415 0.29128006 0.15351154 0.21829088 0.45797536 0.37019616
0.118962176 0.42707855 0.08907482 0.22375257 0.13228746 0.22925079 0.318628 0.13611965
0.19206399 0.2601892 0.19880468 0.29700476 0.4632861 0.2154147 0.3005066 0.056464124
0.21880104 0.3941109 0.08535656 0.32242757 0.42716902 0.4233285 0.18201603 0.15578692
0.12266704 0.26592425 0.29380888 0.14227492 0.34125984 0.17514719 0.17636673 0.1387507
0.08958804 0.14235623 0.18089709 0.24798416 0.1768598 0.07755232 0.081964 0.05483018
0.13953331 0.28373733 0.1565965 0.08124827 0.2946135 0.15591927 0.19815196 0.067888185
00000000: e3af 283e 9d67 753e bd52 ed3e 0801 953d
00000010: 4299 0c3e 237d d03e 0106 af3d bb39 023e
00000020: a86a 1f3e 8a5e b53d daf8 e23d 94e8 6b3e
00000030: 74b8 c63d d035 9a3d c986 033e b3b9 393e
00000040: 4451 fb3d 264e b23e 660a 993e 1021 2c3e
00000050: 73fb a53e 5f76 9c3d b7fb fa3d 2de8 c23d
00000060: 545c ea3d f5a2 b33e 9aa4 703e 5591 193e
00000070: 98d7 4f3e 09fb 723e 62bd be3e ca05 e23e
00000080: 9ec3 b23d d939 913d 9ad0 123f 42be 4a3e
00000090: b7ff 403e 0eda 253e 32c0 363e de69 6e3e
000000a0: 7978 3e3d 949f 613e 5cb5 e43d 40f6 0e3e
000000b0: 10c3 603e 1774 913e 5fe2 9a3e ef3b b63e
000000c0: aeb2 c13d 11ca 413e b41f c33e c9a9 9c3e
000000d0: 0433 a23d 412d aa3e 0d6b 203d fcee 893e
000000e0: acd2 933e 1a97 2a3e 8bb3 f03d ecd9 9b3e
000000f0: 5db3 473e 450e 533e 3ff8 273e 37e2 013f
00000100: 4f0f 8f3e e540 193e 3f33 443e 06d7 aa3e
00000110: 4453 0e3e 5acc 633e 9b3e 063e 0fee de3e
00000120: 8318 853e 1b8a 223e 9087 213e 5f89 d83d
00000130: 0e29 7d3e 2f3c 153f 0c97 ee3d e1cf 123e
00000140: 6c59 563e f6d4 883e 5462 cd3d 3d0a 983e
00000150: 45e0 883d bfce c43e b5fe 123e e30f 843d
00000160: 8aca 4e3e db0b 183e bc46 e23e a407 393e
00000170: 3659 0d3e 003e 0c3e 43b4 463e b74b 3a3e
00000180: f776 a23e 8db8 4e3e 778f 603e eea0 2a3e
00000190: 5a8d 663e c5d2 d13d 474e 293e 72c8 4c3e
000001a0: 98d4 763e 9b2e b33e ecb5 183e ce24 493e
000001b0: ebca d03e e773 773e f1ca 2b3e d6ba 023f
000001c0: d31f e13d 7cf9 a73e 6be5 7a3e 6043 c43d
000001d0: d94e 933e fec2 9b3e cebd 013e 454c 9f3e
000001e0: eed3 983d 52b6 bb3e 6a8f 053f 4ddb b13e
000001f0: 7955 883d 84d1 933e b413 9b3e 6c17 ac3e
00000200: 5c1a 7f3d b172 d63d 7cd8 b63d 8923 983e
00000210: 9526 833d 19c8 a93d a73e f03d 7c5d 0a3e
00000220: 8072 593e c082 783e 4b88 723e 8e2f df3d
00000230: 47b8 563e f912 d43e b4fc a93e a5d0 263e
00000240: e638 e33d b715 833e b009 ae3d a922 953e
00000250: 2132 1d3e a587 5f3e bf7b ea3e 5a8a bd3e
00000260: 71a2 f33d 0aaa da3e dc6c b63d 651f 653e
00000270: 5d76 073e b8c0 6a3e 3623 a33e f362 0b3e
00000280: 6cac 443e 8537 853e 7493 4b3e 0211 983e
00000290: d633 ed3e ac95 5c3e 00dc 993e ed46 673d
000002a0: 610d 603e e7c8 c93e 6ccf ae3d 3a15 a53e
000002b0: e6b5 da3e 83be d83e 6962 3a3e 9b86 1f3e
000002c0: db38 fb3d 3927 883e 1e6e 963e 84b0 113e
000002d0: 9cb9 ae3e c959 333e 7b99 343e aa14 0e3e
000002e0: ef79 b73d d5c5 113e 163d 393e 8fef 7d3e
000002f0: bc1a 353e c0d3 9e3d bedc a73d 9c95 603d
00000300: d2e1 0e3e 0546 913e d55a 203e 7e65 a63d
00000310: 95d7 963e 4da9 1f3e 59e8 4a3e f608 8b3d

weight f4 [100, 200]
-0.16431798 -0.06287968 -0.14861557 0.10355509 0.06004653 -0.031285282 0.07522595 -0.06295558
0.08949347 0.14299662 0.10319719 0.011996178 0.028059896 -0.09331561 0.115982525 0.107541054
-0.1947098 0.003203977 0.06861586 0.0016336786 -0.0513343 -0.045438126 -0.0008424116 -0.10696662
0.08017646 -0.19005078 -0.030399023 -0.27042398 -0.12685004 0.062487073 0.030334556 -0.002199117
-0.26693833 -0.22571331 -0.069323495 -0.16632868 0.15510744 -0.116711825 -0.15066454 -0.15613973
0.119072855 -0.09682376 0.13977951 -0.048010882 0.011934881 -0.24508283 -0.23680344 0.07995717
0.0028885335 0.11423437 -0.2538768 -0.22760715 -0.05327947 -0.38879442 -0.049969103 -0.011014396
0.03287426 0.21002811 -0.075557165 -0.0863655 -0.062370315 -0.0018826146 -0.0892114 -0.07673454
-0.17105067 0.16808684 -0.0910618 -0.08711794 -0.08590942 -0.141168 -0.0467703 -0.13003871
-0.037111104 -0.1133285 -0.09763106 -0.14206263 0.04191576 -0.030850084 0.13905546 0.10620843
-0.009024784 -0.04409676 -0.024420576 -0.18606994 -0.14238852 -0.25319096 -0.18391496 0.021104751
-0.07760671 -0.1498175 -0.18754706 -0.09360271 0.23739107 0.123159505 -0.15768452 0.0060385284
-0.21904449 0.14360455 -0.121439695 -0.010830353 0.066835105 -0.0047210255 -0.14956315 -0.16481203
0.25589222 -0.046946876 -0.16653886 -0.22997727 -0.046091605 -0.14692497 -0.07553902 -0.18604325
0.06720234 -0.05747197 -0.3104172 -0.097078815 -0.11132946 -0.04518809 0.06925999 -0.17269453
0.016440136 -0.11352972 -0.25101337 0.05801999 0.004924735 -0.14352085 -0.040759645 -0.17952108
0.042211708 -0.075018555 0.24546504 -0.0005942275 0.030020483 -0.083211854 0.18155149 0.05725185
-0.24249728 0.12187181 -0.089930944 0.182242 -0.15503743 -0.20931755 -0.25826332 0.034705877
0.036615316 0.012413743 -0.16445917 -0.16984953 -0.06631542 -0.05345312 -0.21602191 -0.058741525
0.010765869 -0.18556347 0.06183824 -0.05003773 -0.012456242 -0.22538404 -0.07581755 -0.22583736
0.07511299 0.00024553918 -0.12050732 0.020642284 -0.35036913 -0.1597949 -0.106298156 -0.05363785
-0.23281552 -0.21082425 0.17870778 -0.14921461 -0.079344764 -0.16431601 -0.1454613 -0.14256077
-0.016167935 -0.26877892 -0.066365175 -0.016626183 -0.09430956 -0.06630804 0.07596807 -0.20973314
-0.15265693 -0.08831043 -0.03147952 -0.27358815 -0.14512172 0.15149534 0.09490331 -0.056756545
-0.051610526 -0.37350288 0.20317228 0.19300109 -0.111785166 -0.22555847 -0.33162966 0.052828394
0.111673325 -0.048467934 0.061774943 -0.020490838 -0.10684715 -0.17223714 0.11730882 0.19094314
-0.05595595 -0.07691001 -0.29571617 -0.09071065 -0.004962163 0.3471807 -0.11277141 -0.22441825
-0.087007254 0.10710514 -0.08388084 0.08924022 -0.19940746 0.24266693 -0.23587342 0.0904582
-0.07956914 0.17031509 0.016359242 -0.024493786 -0.07870345 -0.08375647 0.08726513 0.096682645
0.108909436 -0.119756125 0.18864162 -0.11815263 -0.018224606 -0.054947097 -0.09915797 -0.07423394
0.029497337 0.29312596 -0.27130288 -0.0882712 -0.12608595 -0.0004933197 0.11485321 -0.12402985
0.15137564 -0.18945178 0.0465623 0.21193922 0.013769156 0.19814177 0.24725395 -0.24710238
00000000: f942 28be 10c7 80bd ae2e 18be b114 d43d
00000010: 5af3 753d ff24 00bd 1010 9a3d dbee 80bd
00000020: 5a48 b73d b56d 123e 0c59 d33d 9e8b 443c
00000030: dedd e53c 411c bfbd 3f88 ed3d 7c3e dc3d
00000040: 0162 47be d0f9 513b 7986 8c3d 2821 d63a
00000050: ea43 52bd 541d 3abd 49d5 5cba 5111 dbbd
00000060: 8e33 a43d ac9c 42be 5f07 f9bc 0375 8abe
00000070: fae4 01be 72f2 7f3d 2d80 f83c 101f 10bb
00000080: 24ac 88be 6421 67be 7af9 8dbd 1152 2abe
00000090: 7cd4 1e3e 9c06 efbd ce47 1abe 18e3 1fbe
000000a0: 78dc f33d 894b c6bd 5c22 0f3e 0fa7 44bd
000000b0: 858a 433c fef6 7abe 9a7c 72be 96c0 a33d
000000c0: 8d4d 3d3b b6f3 e93d 24fc 81be d911 69be
000000d0: 933b 5abd 1010 c7be 67ac 4cbd ba75 34bc
000000e0: 29a7 063d 9c11 573e b7bd 9abd 65e0 b0bd
000000f0: 0478 7fbd 10c2 f6ba 77b4 b6bd 0027 9dbd
00000100: e827 2fbe f51e 2c3e 9c7e babd e46a b2bd
00000110: 47f1 afbd 588e 10be 3792 3fbd de28 05be
00000120: d001 18bd c618 e8bd cbf2 c7bd de78 11be
00000130: dcaf 2b3d 51b9 fcbc 8e64 0e3e ce83 d93d
00000140: b0dc 13bc ce9e 34bd a90d c8bc 1e89 3ebe
00000150: 4cce 11be 3fa2 81be 3454 3cbe dfe3 ac3c
00000160: 44f0 9ebd c269 19be 560c 40be c7b2 bfbd
00000170: a516 733e 0d3b fc3d 0d78 21be d9de c53b
00000180: 334d 60be 120d 133e 60b5 f8bd cb71 31bc
00000190: d8e0 883d d5b2 9abb 1527 19be 7cc4 28be
000001a0: 4e04 833e 5e4b 40bd 2a89 2abe 297f 6bbe
000001b0: 8dca 3cbd 8073 16be 34b4 9abd 1f82 3ebe
000001c0: 61a1 893d ba67 6bbd 01ef 9ebe 42d1 c6bd
000001d0: b300 e4bd 2617 39bd 2ed8 8d3d d6d6 30be
000001e0: 77ad 863c 4582 e8bd d384 80be 5ea6 6d3d
000001f0: ac5f a13b 21f7 12be 96f3 26bd 60d4 37be
00000200: 2fe6 2c3d 54a3 99bd 305b 7b3e efc5 1bba
00000210: 84ed f53c fa6a aabd a2e8 393e ea80 6a3d
00000220: 3551 78be ed97 f93d b72d b8bd a69d 3a3e
00000230: 22c2 1ebe 5757 56be 173b 84be c027 0e3d
00000240: f1f9 153d 0363 4b3c fc67 28be 09ed 2dbe
00000250: 61d0 87bd a9f1 5abd d934 5dbe f49a 70bd
00000260: 5463 303c 5a04 3ebe 184a 7d3d 5df4 4cbd
00000270: 4415 4cbc 13cb 66be 3b46 9bbd e941 67be
00000280: d7d4 993d b6bb 8039 8bcc f6bd 021a a93c
00000290: 9563 b3be 46a1 23be d9b2 d9bd 5db3 5bbd
000002a0: 3167 6ebe 50e2 57be 2cff 363e b7cb 18be
000002b0: 827f a2bd 7542 28be cff3 14be 73fb 11be
000002c0: 9e72 84bc 649d 89be 77ea 87bd a233 88bc
000002d0: 5f25 c1bd 82cc 87bd 2695 9b3d 49c4 56be
000002e0: 1952 1cbe 19dc b4bd abf0 00bd bf13 8cbe
000002f0: ca9a 14be 9821 1b3e ab5c c23d 8d79 68bd
00000300: 8f65 53bd c53b bfbe 650c 503e 14a2 453e
00000310: 9fef e4bd cdf8 66be 5dcb a9be 9662 583d
00000320: fcb4 e43d 5086 46bd b907 7d3d 67dc a7bc
00000330: aed2 dabd ef5e 30be 9b3f f03d 9986 433e
00000340: 1132 65bd ff82 9dbd 1c68 97be 81c6 b9bd
00000350: a499 a2bb abc1 b13e b2f4 e6bd e6cd 65be
00000360: dc30 b2bd f159 db3d b8c9 abbd 94c3 b63d
00000370: 7831 4cbe ae7d 783e cd88 71be 2642 b93d
00000380: 25f5 a2bd 1467 2e3e d103 863c 31a7 c8bc
00000390: 462f a1bd 8388 abbd 0fb8 b23d 8d01 c63d
000003a0: e90b df3d b342 f5bd 452b 413e 02fa f1bd
000003b0: c54b 95bc 3510 61bd 5513 cbbd f707 98bd
000003c0: 66a4 f13c 9b14 963e 36e8 8abe 88c7 b4bd
000003d0: ad1c 01be 2052 01ba 2938 eb3d 5d03 febd
000003e0: 3702 1b3e a6ff 41be 1cb8 3e3d 9806 593e
000003f0: 0798 613c ade5 4a3e 2430 7d3e 6808 7dbe

weight f4 [100]
0.05632048 0.063071795 0.047626834 0.09736504 0.04341084 0.21730651 0.014311284 0.0029186597
0.055787396 0.036127906 0.07813153 0.018890942 -0.016558591 0.064022966 0.12786324 0.029609399
0.009243281 0.031910926 0.043759212 0.15122257 0.12077534 0.07226993 0.008434231 -0.05326332
0.019118441 -0.06089493 0.08311439 0.042326007 0.04839243 0.20056492 -0.06573941 0.16818337
0.13731901 -0.06531371 0.0555654 -0.06600935 0.15539794 -0.04435752 0.06577047 -0.06963062
-0.034434427 0.043526497 0.078091495 -0.10215966 0.072486594 -0.06409485 0.005849768 0.20652536
0.17096412 0.18495722 0.35433394 -0.03322841 0.05684808 0.12222201 0.044432584 -0.026268873
0.07828 0.0222551 -0.02384427 0.072264366 -0.1209487 -0.011029688 0.16317537 0.25074628
-0.053313028 0.10451363 0.06750755 -0.030493665 0.012534212 0.20308284 -0.031767074 0.010370152
0.026200235 -0.06734453 -0.01789246 0.046599485 -0.0027583728 -0.13863985 -0.07898294 0.19538298
0.03716898 -0.0015714538 0.10840884 0.07493164 0.20754479 0.10839852 0.05332876 2.5555408e-05
-0.01869192 0.062321536 -0.03213639 -0.016669229 0.01354222 0.04255298 0.11363078 0.049239088
0.20644034 0.06056503 0.2804587 0.038534656
00000000: 4eb0 663d c92b 813d 5b14 433d 5267 c73d
00000010: 91cf 313d 9985 5e3e e079 6a3c fc46 3f3b
00000020: 5381 643d dbfa 133d 6c03 a03d 2dc1 9a3c
00000030: e2a5 87bc 791e 833d 95ee 023e 698f f23c
00000040: 2171 173c 08b5 023d dc3c 333d 17da 1a3e
00000050: 1059 f73d 4202 943d bb2f 0a3c a42a 5abd
00000060: 479e 9c3c f66c 79bd e137 aa3d 095e 2d3d
00000070: 2437 463d e460 4d3e 62a2 86bd 4338 2c3e
00000080: 5b9d 0c3e 32c3 85bd 8b98 633d e92f 87bd
00000090: a320 1f3e 3bb0 35bd abb2 863d 809a 8ebd
000000a0: 1d0b 0dbd d748 323d 6fee 9f3d 1539 d1bd
000000b0: da73 943d 2944 83bd 69af bf3b 627b 533e
000000c0: 3811 2f3e 6d65 3d3e 426b b53e 831a 08bd
000000d0: 88d9 683d 884f fa3d f1fe 353d d231 d7bc
000000e0: 4451 a03d 5450 b63c 0f55 c3bc 57ff 933d
000000f0: f4b3 f7bd ddb5 34bc 7217 273e d161 803e
00000100: c35e 5abd 3e0b d63d 6641 8a3d dacd f9bc
00000110: 4c5c 4d3c f3f4 4f3e 311e 02bd 92e7 293c
00000120: e0a1 d63c eeeb 89bd 3593 92bc 1adf 3e3d
00000130: d1c5 34bb 9bf7 0dbe cfc1 a1bd 7a12 483e
00000140: 803e 183d 3df9 cdba 7405 de3d c275 993d
00000150: 9f86 543e 0b00 de3d 426f 5a3d d25f d637
00000160: cc1f 99bc de44 7f3d 73a1 03bd e88d 88bc
00000170: 30e0 5d3c 094c 2e3d 41b7 e83d edae 493d
00000180: 1965 533e 0913 783d 4898 8f3e 84d6 1d3d

bias f4 [100]
0.009505843 0.022139601 0.019685134 -0.037837777 0.018611433 0.0071949116 0.0014626043 0.004415098
-0.06625344 -0.011683176 0.031619143 -0.013635424 -0.012767002 -0.012668103 0.012396415 0.017678387
-0.004323403 0.019128993 -0.023045748 -0.05265785 -0.03707419 -0.057313565 -0.0031061515 -0.036854606
-0.03607761 -0.028081018 0.03493612 -0.033128973 0.017557448 0.051298548 -0.0085842 -0.051811665
-0.06762 -0.23990075 0.0053263856 0.011848353 -0.09276943 0.00021430486 -0.028502658 -0.0011441645
-0.06606823 0.007986796 0.041925356 -0.07621633 -0.03739762 -0.018615875 0.0008959364 -0.034241173
0.080530725 0.0381939 0.113157585 -0.02967871 -0.003596484 -0.063784406 -0.1294467 0.02812742
-0.031588245 -0.025888288 -0.12963517 -0.015796853 -0.077376224 -0.07358785 0.14540245 -0.15409409
-0.010017315 0.038520094 -0.019464044 -0.0070633404 -0.11966083 0.038854297 -0.092799455 0.024798313
-0.11662439 -0.012288933 -0.0034557653 -0.0014347103 0.0024440987 -0.03514899 -0.07387993 0.029083416
0.012632587 0.015283837 0.072670944 0.09015862 -0.13867085 0.012120166 -0.08038199 -0.04374659
-0.007309884 -0.017900644 -0.01485609 0.04171658 0.00018883363 -0.1268177 -0.0055830623 0.010259813
0.009528086 0.033679303 -0.032787964 0.0033117617
00000000: 65be 1b3c 1c5e b53c b842 a13c c9fb 1abd
00000010: 0177 983c 4bc3 eb3b dbb4 bf3a 87ac 903b
00000020: e2af 87bd cb6a 3fbc 1383 013d 1d67 5fbc
00000030: b02c 51bc e08d 4fbc 551a 4b3c 44d2 903c
00000040: 55ab 8dbb 68b4 9c3c 70ca bcbc c2af 57bd
00000050: 1bdb 17bd a1c1 6abd 9390 4bbb dbf4 16bd
00000060: 1ec6 13bd 2a0a e6bc 2d19 0f3d 3fb2 07bd
00000070: a3d4 8f3c 6d1e 523d bfa4 0cbc 7838 54bd
00000080: 5b7c 8abd 8ba8 75be f688 ae3b 981f 423c
00000090: e6fd bdbd 06b7 6039 687e e9bc caf7 95ba
000000a0: c84e 87bd 0ddb 023c ecb9 2b3d 4f17 9cbd
000000b0: 3f2e 19bd 5280 98bc 46dd 6a3a 7940 0cbd
000000c0: 4bed a43d 3571 1c3d 2abf e73d c420 f3bc
000000d0: fdb2 6bbb 66a1 82bd ad8d 04be 7a6b e63c
000000e0: ad62 01bd ad13 d4bc 15bf 04be 6768 81bc
000000f0: 6d77 9ebd 3ab5 96bd 61e4 143e d7ca 1dbe
00000100: aa1f 24bc 3fc7 1d3d 0f73 9fbc 9873 e7bb
00000110: bd10 f5bd af25 1f3d a40d bebd d525 cb3c
00000120: c5d8 eebd 8557 49bc 1f7a 62bb e40c bcba
00000130: 2c2d 203b 63f8 0fbd 5c4e 97bd 5840 ee3c
00000140: e9f8 4e3c 0f69 7a3c 81d4 943d 15a5 b83d
00000150: bbff 0dbe a993 463c 509f a4bd a02f 33bd
00000160: c087 efbb 5fa4 92bc f566 73bc 01df 2a3d
00000170: a401 4639 80dc 01be 1ff2 b6bb c618 283c
00000180: b01b 1c3c 4ff3 093d ac4c 06bd 240a 593b

running_mean f4 [100]
2.1378186 1.7610313 0.5496123 2.9473197 5.211125 2.2124314 3.6820278 1.5641432
3.5251052 1.7876279 1.9178187 1.5403563 1.0991676 1.363322 2.0268083 2.862795
1.6201537 1.9122554 1.4913312 2.73107 4.3530526 2.1240494 2.4563234 2.8419385
2.0677586 1.9218705 2.1605756 2.2684262 2.3307726 5.032865 3.4318404 1.0300459
1.4668498 3.100328 2.8639233 3.8026228 1.8130774 1.7677981 2.6610456 3.6297157
3.9293761 2.0031877 1.887464 3.919052 4.3921795 1.933733 1.6581682 4.1050215
2.5360844 3.7890503 3.2214935 2.669456 3.1260145 2.9946687 2.887487 3.8065917
2.3832846 2.1903696 3.237502 3.0233455 5.7498665 2.1827636 3.7625518 3.308392
3.703659 3.82737 3.2662754 2.5038104 1.6314809 4.415187 3.383835 2.0145783
2.309497 3.0907593 1.1863518 1.479697 2.8384097 3.9731302 3.5636225 4.2171607
1.7593286 5.5704036 2.0561306 4.809632 3.5390859 1.2258015 5.3092947 5.4056206
1.2926205 1.8604717 4.5242157 4.930508 3.986644 1.899255 1.1197846 0.8558709
2.0075347 2.2857778 4.700122 3.6511164
00000000: 05d2 0840 7969 e13f 64b3 0c3f e3a0 3c40
00000010: 89c1 a640 7a98 0d40 58a6 6b40 d835 c83f
00000020: 539b 6140 fed0 e43f 157b f53f 652a c53f
00000030: 86b1 8c3f 5681 ae3f 3ab7 0140 0938 3740
00000040: 3261 cf3f c9c4 f43f f1e3 be3f dac9 2e40
00000050: 354c 8b40 6df0 0740 6734 1d40 52e2 3540
00000060: 2856 0440 daff f53f df46 0a40 e52d 1140
00000070: 612b 1540 3b0d a140 46a3 5b40 8bd8 833f
00000080: bcc1 bb3f c66b 4640 854a 3740 2c5e 7340
00000090: ec12 e83f 3547 e23f 924e 2a40 434d 6840
000000a0: e67a 7b40 3a34 0040 6c98 f13f bfd1 7a40
000000b0: bc8c 8c40 9084 f73f db3e d43f 565c 8340
000000c0: 354f 2240 cd7f 7240 f32c 4e40 5ed8 2a40
000000d0: 9f10 4840 a7a8 3f40 96cc 3840 339f 7340
000000e0: bc87 1840 042f 0c40 3c33 4f40 7e7e 4140
000000f0: e8fe b740 66b2 0b40 a6cd 7040 b2bc 5340
00000100: c008 6d40 a1f3 7440 a80a 5140 6e3e 2040
00000110: 5ed4 d03f 3649 8d40 c190 5840 daee 0040
00000120: cdce 1340 00cf 4540 60da 973f b666 bd3f
00000130: 81a8 3540 c447 7e40 6412 6440 fbf2 8640
00000140: ae31 e13f bf40 b240 a597 0340 81e8 9940
00000150: 6280 6240 10e7 9c3f bee5 a940 d8fa ac40
00000160: 9774 a53f f023 ee3f 60c6 9040 b9c6 9d40
00000170: 2d25 7f40 ca1a f33f 1a55 8f3f 5b1a 5b3f
00000180: 737b 0040 2f4a 1240 6667 9640 e4ab 6940

running_var f4 [100]
13.350203 29.95771 3.0397499 102.35127 29.332457 7.4232826 101.77095 16.134583
51.818535 13.46354 40.942417 34.528908 14.252232 11.817721 34.564373 18.709085
25.311508 43.04476 8.355856 59.91431 154.47954 43.377193 54.386463 46.208584
46.955013 20.485125 12.719362 23.183876 26.316603 219.59726 19.461983 25.301117
35.905937 59.77872 24.16487 46.36662 9.62584 25.688694 71.673035 90.19595
61.88664 13.883966 41.157574 41.13107 66.97161 15.241926 10.783046 151.59651
23.083847 37.163303 65.69334 25.878092 12.0641 44.799732 72.32764 80.43588
27.240067 13.909972 61.185246 31.818146 75.08288 8.265667 21.783566 61.233883
42.66969 73.39697 34.15477 18.17564 13.943944 45.005962 29.133053 46.350075
53.174904 62.494156 14.451842 12.277254 68.08752 64.55604 13.096191 63.521866
16.79217 82.19026 14.05362 25.44334 86.443115 7.8918157 94.48905 30.676527
8.681311 14.517546 35.983814 86.42134 16.253426 60.15024 10.872225 5.20055
42.28 16.136875 119.66213 50.797836
00000000: 6e9a 5541 64a9 ef41 438b 4240 dab3 cc42
00000010: dfa8 ea41 888b ed40 ba8a cb42 a013 8141
00000020: 2e46 4f42 a96a 5741 09c5 2342 9a1d 0a42
00000030: 2409 6441 6315 3d41 eb41 0a42 35ac 9541
00000040: f87d ca41 d62d 2c42 96b1 0541 41a8 6f42
00000050: c37a 1a43 3f82 2d42 bd8b 5942 97d5 3842
00000060: efd1 3b42 89e1 a341 8282 4b41 9478 b941
00000070: 6788 d241 e698 5b43 24b2 9b41 b068 ca41
00000080: ae9f 0f42 691d 6f42 a751 c141 6b77 3942
00000090: 7103 1a41 7282 cd41 9858 8f42 5464 b442
000000a0: eb8b 7742 ba24 5e41 5ba1 2442 3786 2442
000000b0: 77f1 8542 eede 7341 5b87 2c41 b598 1743
000000c0: b8ab b841 39a7 1442 fd62 8342 5506 cf41
000000d0: 8e06 4141 ed32 3342 c0a7 9042 2cdf a042
000000e0: a8eb d941 3f8f 5e41 b1bd 7442 908b fe41
000000f0: 6f2a 9642 2c40 0441 be44 ae41 7fef 7442
00000100: c3ad 2a42 40cb 9242 7c9e 0842 b667 9141
00000110: 651a 5f41 1b06 3442 7e10 e941 7a66 3942
00000120: 1ab3 5442 04fa 7942 bf3a 6741 a26f 4441
00000130: cf2c 8842 b11c 8142 008a 5141 6416 7e42
00000140: 5d56 8641 6a61 a442 a1db 6041 f68b cb41
00000150: e0e2 ac42 c189 fc40 65fa bc42 8769 f541
00000160: a6e6 0a41 de47 6841 6def 0f42 bad7 ac42
00000170: 0407 8241 d999 7042 a2f4 2d41 e86a a640
00000180: b81e 2942 5218 8141 0353 ef42 fc30 4b42

weight f4 [1, 100]
-0.002333764 -0.006923301 -0.0058808434 0.026511459 -0.023813229 -0.06586706 -0.0007713457 -0.003016093
0.014659329 0.013459785 -0.007475381 0.0018199586 0.00047729717 -0.012960166 -0.03528475 -0.006066146
-0.0005017956 -0.0033735596 0.012835323 0.0096581755 0.03746012 0.028123597 0.0017333626 0.009641278
-0.011304237 0.008356261 0.0026180125 0.015676726 -0.00080378307 0.0057007303 0.0087331105 0.042694192
0.031074433 0.04890389 -0.00011756639 -0.011224446 0.06056485 -0.012762723 0.020495297 0.0024798645
0.040793084 0.006534162 -0.009965147 0.016567174 0.035699163 0.007634696 0.010813168 0.045601096
-0.010691573 -0.042450998 -0.084703624 0.0077951485 -0.0015469374 0.055355906 0.023651091 -0.029090425
0.011296958 0.008902048 0.024131991 0.018803645 0.052133832 0.04524186 -0.064915925 0.03492772
0.038356863 -0.0054929606 0.01823763 0.00479845 0.073789336 -0.018707236 0.024645574 -0.007641814
0.009860108 0.006017887 0.0009629494 0.002887653 0.0011532591 0.024637008 0.01857728 0.04882726
0.027551139 0.0021234504 -0.013796053 -0.007793054 -0.06936947 0.0027634082 0.015548565 0.044812296
-0.0010210627 0.010907835 0.004015107 0.005179712 9.022726e-05 0.035361968 0.012246178 -0.0038538033
-0.027299698 -0.005744722 0.047389127 0.0028437076
00000000: 10f2 18bb dcdc e2bb 17b4 c0bb 8f2e d93c
00000010: f613 c3bc 4fe5 86bd 2234 4aba a5a9 45bb
00000020: af2d 703c 6e86 5c3c 0af4 f4bb ad8b ee3a
00000030: be3d fa39 e056 54bc be86 10bd 85c6 c6bb
00000040: ef8a 03ba f016 5dbb 3f4b 523c 533d 1e3c
00000050: c86f 193d 7563 e63c ff31 e33a 73f6 1d3c
00000060: 6835 39bc b3e8 083c f692 2b3b 7a6c 803c
00000070: f8b4 52ba 31cd ba3b 5215 0f3c 1be0 2e3d
00000080: cf8f fe3c 724f 483d fa8d f6b8 bde6 37bc
00000090: d912 783d bd1a 51bc c1e5 a73c 3985 223b
000000a0: a616 273d 861c d63b db44 23bc e2b7 873c
000000b0: 4939 123d 792c fa3b b729 313c 37c8 3a3d
000000c0: b52b 2fbc 19e1 2dbd 1879 adbd 726e ff3b
000000d0: 9bc2 caba e0bc 623d efbf c13c 0b4f eebc
000000e0: e016 393c e5d9 113c 74b0 c53c 1a0a 9a3c
000000f0: 498a 553d 874f 393d a4f2 84bd 5e10 0f3d
00000100: 161c 1d3d 4bfe b3bb 1567 953c 513c 9d3b
00000110: dd1e 973d eb3f 99bc 84e5 c93c 2f68 fabb
00000120: 4a8c 213c b231 c53b 716e 7c3a c73e 3d3b
00000130: f428 973a 8dd3 c93c 612f 983c 18ff 473d
00000140: edb2 e13c 9629 0b3b d708 62bc e05c ffbb
00000150: 9511 8ebd 4c1a 353b 69bf 7e3c 198d 373d
00000160: 2ed5 85ba c7b6 323c 2991 833b 93ba a93b
00000170: 6438 bd38 b6d7 103d 32a4 483c 1790 7cbb
00000180: 9ea3 dfbc 393e bcbb 1a1b 423d 7f5d 3a3b
